code/US_early_ckpt/checkpoint.pth (torch, 792397 bytes, 394 tensors)

pos_fc_en.module.weight f8 [4, 4]
-0.2702206373213032 -0.07815033197413401 -0.22497463228431447 0.017265200608067525 -0.29989039897924374 0.027566373348059527 0.13872110843750926 -0.015623331070023972
-0.20964074134827893 -0.1999074816702795 -0.4492355584956287 -0.10738587378958324 0.04369318485240895 -0.4736684560774466 0.07145965100126789 0.16111791131458134
00000000: 1cf4 ff7f 4b4b d1bf 681d 0000 a901 b4bf
00000010: e89d 0b00 f8cb ccbf 71d2 e1ff f7ad 913f
00000020: fe03 0080 6731 d3bf 3739 ffff 5b3a 9c3f
00000030: 2782 0000 9dc1 c13f edae 0000 20ff 8fbf
00000040: bc01 0000 82d5 cabf e8f1 ff7f 9196 c9bf
00000050: e818 fc7f 46c0 dcbf 6388 faff a37d bbbf
00000060: 6594 ffff f35e a63f ebf6 ff7f 9550 debf
00000070: 7cb5 0800 2e4b b23f a9ae f2ff 829f c43f

pos_fc_en.module.bias f8 [4]
-0.214823603630394 -0.36019027233122813 -0.35511791706060175 0.21618801355356934
00000000: 2c2e 0000 577f cbbf 52ff ff7f 5b0d d7bf
00000010: 63ee ff7f 40ba d6bf f5f8 ff7f 0cac cb3f

pos_fc_de.module.weight f8 [4, 4]
0.3863268494606126 0.23418563604328252 0.39267605483540824 0.388757467306266 -0.3485268950491734 0.13828337192569895 0.3672705297759251 0.3752262592253647
-0.24718511104869564 0.3561809062955015 0.23721307633357552 0.48453968721790364 -0.1551710367208262 0.39029520750190866 -0.4812410467971601 -0.08681380749273875
00000000: c200 0040 94b9 d83f 8eda ff7f cbf9 cd3f
00000010: 342f 5cbf 9a21 d93f 35ff 0900 67e1 d83f
00000020: d5ce 00c0 434e d6bf 8c30 0000 45b3 c13f
00000030: 3405 8b40 5c81 d73f 864b feff b403 d83f
00000040: 4392 0100 c3a3 cfbf a8ec ffff aacb d63f
00000050: 1ea4 8482 ff5c ce3f fec1 8dbf b202 df3f
00000060: 734d 0000 a5dc c3bf 1966 00c0 98fa d83f
00000070: 9724 5f3f a7cc debf 03c6 0500 6e39 b6bf

pos_fc_de.module.bias f8 [4]
-0.32277536392341216 0.4180664420135714 0.06951040029586918 -0.3737874031055778
00000000: fd5a 0000 5aa8 d4bf 3537 00c0 99c1 da3f
00000010: 27ac 0000 6fcb b13f c6b1 ffff 21ec d7bf

post_rnn_glu.module.fc1.weight f8 [4, 4]
-0.10036283731721236 0.22393423348590075 0.029547333498557746 -0.14226371002902344 -0.25193476676915144 0.03509396314564182 -0.04645639657963676 0.44274663925187313
0.21536946300208634 -0.326382046730531 0.485697799765102 -0.1452788782808946 -0.41179841756748287 0.08147722482243236 -0.03520721196907567 -0.3205456137679151
00000000: b5dd 0200 61b1 b9bf 426d a380 e0a9 cc3f
00000010: 1cc2 3dfc a741 9e3f 72bb fd7e b235 c2bf
00000020: dded ffff b21f d0bf 4dc0 feff d5f7 a13f
00000030: 83c4 ffff 21c9 a7bf 8d0b 0000 f655 dc3f
00000040: 5f55 1300 3a91 cb3f 1d63 2d86 71e3 d4bf
00000050: bdbc 6e39 ac15 df3f 850c 828f 7f98 c2bf
00000060: 0fcd ffbf e75a dabf 082f fbff b0db b43f
00000070: 6825 fbff ad06 a2bf b69a 00c0 d183 d4bf

post_rnn_glu.module.fc1.bias f8 [4]
-0.3180285692189404 0.09998011589037249 -0.47832417490809176 -0.2402378320709336
00000000: 204c ff7f 945a d4bf 49db ffff 4b98 b93f
00000010: b873 0700 dd9c debf 43d8 0000 1dc0 cebf

post_rnn_glu.module.fc2.weight f8 [4, 4]
0.25758504867697546 -0.01821190129441417 -0.21256983291378678 0.33743053665254974 -0.37073326110651317 -0.10344165608186434 0.35759699316578303 -0.1129480009034506
0.44703370331047293 0.003464400546690881 0.4082604048339134 -0.0026699307454049123 0.24947261809804905 0.3066474795312586 0.19386911392165715 -0.26869755983205695
00000000: 3765 0000 467c d03f fa77 d401 24a6 92bf
00000010: 168e 3d00 7d35 cbbf 260b e63f 7698 d53f
00000020: 567b ffff 17ba d7bf 746a ea01 277b babf
00000030: d9e0 b27f dee2 d63f e965 0702 29ea bcbf
00000040: 6b68 fb3f 339c dc3f 6386 8be1 5f61 6c3f
00000050: 31db c03f f020 da3f 30bd 7d27 40df 65bf
00000060: 5e43 fdff b7ee cf3f 9834 ffbf 1ca0 d33f
00000070: fbbe ffff b3d0 c83f 9598 ff3f 5732 d1bf

post_rnn_glu.module.fc2.bias f8 [4]
-0.39940583706005456 -0.11893296241820782 -0.004227101805687293 0.12878572940870686
00000000: bb48 0080 dd8f d9bf 5faa 0000 6472 bebf
00000010: 7256 3200 7050 71bf 4e3e 0000 0d7c c03f

post_rnn_norm.module.weight f8 [4]
1.0000000000000697 1.0000000000048743 1.0000000000144427 0.9999999999996422
00000000: 3a01 0000 0000 f03f c055 0000 0000 f03f
00000010: 14fe 0000 0000 f03f 69f3 ffff ffff ef3f

post_rnn_norm.module.bias f8 [4]
-1.4626657986178184e-14 1.457046797584171e-14 -2.9044525458357514e-14 -6.562972520241892e-16
00000000: 3ea7 b8dd d877 10bd dd73 6fc6 a667 103d
00000010: 2a20 12db c159 20bd c836 a812 46a5 c7bc

post_rnn_norm.module.running_mean f8 [4]
0.5629434184142493 -1.3169490952542262 -0.018571146977647952 0.28202828654566015
00000000: fdcd 72ea a103 e23f add1 e936 3912 f5bf
00000010: 823e ac93 5004 93bf 7aac d05e c00c d23f

post_rnn_norm.module.running_var f8 [4]
136.0729375412901 126.31931127096854 1.3269477319038658 4.779558862427718
00000000: bb4f 1c81 5502 6140 7683 8a98 6f94 5f40
00000010: a774 808b 2d3b f53f 6ebc adad 441e 1340

multihead_attn.W_q.weight f8 [8, 8]
0.09683229774231147 0.21982619166369516 -0.21830482780933302 0.1764580607414262 0.34608912467956543 -0.23084118962287903 -0.33902350068092346 0.04538225010037422
-0.262354135513227 0.28052696585660797 -0.3287765681743637 0.33825412392615334 -0.001623665215447545 -0.10091754794120789 0.28202342987060547 -0.19148071110248566
-0.21344874799304447 0.23097732663096535 0.11348435282706386 0.27053523063660645 0.17695683240890503 0.12606266140937805 -0.175135999917984 -0.09983231127262115
0.2765144705772555 0.08751834929022206 -0.11128382384776565 -0.13657782971858975 0.27536436915397644 -0.0031308785546571016 -0.17009270191192627 -0.1216481551527977
0.1547397077082674 -0.1618994027376188 0.2393629848957037 -0.18805161118507055 0.06469693034887314 0.04266837239265442 0.06630229949951172 0.2935280501842499
-0.29338437318803207 -0.11701322346926248 -0.35041972994804016 0.20795685052871726 -0.3084711730480194 -0.07440389692783356 0.2856370210647583 0.12366850674152374
0.1722307354210005 0.33209234476091204 0.02859895490110731 -0.3105554282665213 0.15231625735759735 0.30355769395828247 -0.23784060776233673 -0.12024335563182831
0.043629024177552635 -0.31778073310859695 0.2657411396503396 0.3095658719539729 0.3220098912715912 -0.25127866864204407 -0.2908332347869873 0.273834764957428
00000000: 6ef0 ff5f 00ca b83f 66f9 ffbf 4323 cc3f
00000010: e4ff ff9f 69f1 cbbf 3b00 0080 2d96 c63f
00000020: 0000 0000 5326 d63f 0000 0040 348c cdbf
00000030: 0000 00a0 8fb2 d5bf 0000 00a0 573c a73f
00000040: 77fa ffff 68ca d0bf ee03 0060 27f4 d13f
00000050: 1b00 00e0 ac0a d5bf 57ff ff9f f4a5 d53f
00000060: 0000 0040 259a 5abf 0000 0080 bbd5 b9bf
00000070: 0000 0000 ac0c d23f 0000 00a0 7082 c8bf
00000080: 704a 00e0 4952 cbbf 47ae ff3f aa90 cd3f
00000090: abfd ff7f 4f0d bd3f b000 0000 7350 d13f
000000a0: 0000 0080 85a6 c63f 0000 0040 d222 c03f
000000b0: 0000 0040 db6a c6bf 0000 0040 9c8e b9bf
000000c0: 1701 00c0 69b2 d13f 505c 0040 9a67 b63f
000000d0: 95fe ffbf 187d bcbf ffff ffdf 617b c1bf
000000e0: 0000 00e0 919f d13f 0000 00a0 eda5 69bf
000000f0: 0000 0000 99c5 c5bf 0000 0060 5524 bfbf
00000100: 24f3 ffbf 82ce c33f 2f00 00a0 1eb9 c4bf
00000110: a7ff ff3f 72a3 ce3f 89ff ff3f 1312 c8bf
00000120: 0000 0060 fa8f b03f 0000 0000 a1d8 a53f
00000130: 0000 0000 30f9 b03f 0000 00e0 29c9 d23f
00000140: ef00 0040 cfc6 d2bf 7101 0020 94f4 bdbf
00000150: beff ffdf 466d d6bf 0800 0080 549e ca3f
00000160: 0000 00e0 fdbd d3bf 0000 0040 220c b3bf
00000170: 0000 0080 e047 d23f 0000 0040 bda8 bf3f
00000180: a3e6 ff1f a80b c63f 3701 0040 0041 d53f
00000190: 2009 0060 0b49 9d3f b9ff ffdf 23e0 d3bf
000001a0: 0000 0060 197f c33f 0000 0040 7d6d d33f
000001b0: 0000 00a0 8f71 cebf 0000 00c0 44c8 bebf
000001c0: 8d7a ff1f 8b56 a63f 6105 0000 8556 d4bf
000001d0: a1ff ff1f e701 d13f 9c00 0060 edcf d33f
000001e0: 0000 0060 cf9b d43f 0000 0020 f314 d0bf
000001f0: 0000 0000 039d d2bf 0000 0040 8286 d13f

multihead_attn.W_q.bias f8 [8]
0.08401986956595554 0.1474629640579602 -0.13889004290108842 -0.334658950567268 0.11836010962722672 0.22147810459136874 0.2710261940955802 -0.10469605773693325
00000000: b1fd ff7f 5382 b53f 5305 0000 11e0 c23f
00000010: f006 0020 26c7 c1bf 9601 0060 0d6b d5bf
00000020: 55fa ff1f d94c be3f e0ff ffff 6459 cc3f
00000030: cbfd ff3f 7e58 d13f c810 0060 5ccd babf

multihead_attn.W_k.weight f8 [8, 8]
0.005692859180321222 0.22361052036283605 0.22045287489889026 0.03152588382337802 -0.03391008824110031 -0.17214231193065643 0.1737086921930313 0.2063932865858078
-0.2548879384994475 -0.28264707326889144 -0.2526621222496037 0.14399638772009643 -0.11217404901981354 -0.232765793800354 -0.0751088410615921 -0.08358891308307648
0.27156051993370545 0.20992645621299527 0.29421189427369004 -0.06479176133881011 0.0975445806980133 -0.038386549800634384 0.2236236333847046 -0.10776371508836746
0.06971902400259147 -0.2565840184688611 -0.05587344244116552 -0.3152063786984741 -0.25689059495925903 -0.1514216512441635 0.23960432410240173 0.3020545244216919
0.33621728420259317 0.24296613037583792 -0.21354076266322602 0.25711059570277583 -0.2299310266971588 -0.3332032561302185 -0.1328958421945572 -0.3224642276763916
-0.1713658422231854 -0.22151809930800698 0.11846644431353331 0.007363475859258338 0.0204714834690094 -0.2963251769542694 0.0013999496586620808 0.2229597270488739
0.2860247492790957 -0.29711449146271074 0.003703612135850994 0.2817770838735456 -0.24180974066257477 0.2963324785232544 0.24742892384529114 0.24444425106048584
-0.23516672849653983 0.0629128068685479 -0.10058779269457087 -0.30686244368561094 -0.08780330419540405 -0.26283174753189087 -0.11805795878171921 0.23952019214630127
00000000: 5ddf 0040 6551 773f 79fd ffff 449f cc3f
00000010: 26fd ffbf cc37 cc3f 5a70 ff1f 2924 a03f
00000020: 0000 00c0 a95c a1bf 0000 0060 c208 c6bf
00000030: 0000 0020 163c c63f 0000 0060 186b ca3f
00000040: c7ff ff7f 1550 d0bf 1300 00c0 e316 d2bf
00000050: 0800 00c0 9d2b d0bf 5efe ff3f 796e c23f
00000060: 0000 0040 70b7 bcbf 0000 0000 45cb cdbf
00000070: 0000 0040 553a b3bf 0000 0040 1566 b5bf
00000080: 5800 0060 3f61 d13f b2ff ffbf dede ca3f
00000090: 39fb ff1f 5ed4 d23f f51b 0060 3196 b0bf
000000a0: 0000 0080 aef8 b83f 0000 00e0 66a7 a3bf
000000b0: 0000 0000 b39f cc3f 0000 0020 6796 bbbf
000000c0: 1a0b 0020 1bd9 b13f 4d00 0060 df6b d0bf
000000d0: 7dde ff9f 719b acbf ce08 0060 572c d4bf
000000e0: 0000 0040 e570 d0bf 0000 00e0 c861 c3bf
000000f0: 0000 00c0 5aab ce3f 0000 0080 dc54 d33f
00000100: 3b01 0080 9584 d53f 98fc ff9f 8319 cf3f
00000110: a22f 00c0 4d55 cbbf 6ee7 ffff 7f74 d03f
00000120: 0000 0040 616e cdbf 0000 00c0 3353 d5bf
00000130: 0000 0020 bb02 c1bf 0000 0000 41a3 d4bf
00000140: 8802 00e0 50ef c5bf 06ff ff7f b45a ccbf
00000150: 0402 0020 d153 be3f 7ea3 0100 2a29 7e3f
00000160: 0000 0000 7af6 943f 0000 00e0 fdf6 d2bf
00000170: 0000 0080 d0ef 563f 0000 00c0 f189 cc3f
00000180: 2c05 00c0 3a4e d23f 3a00 0080 ec03 d3bf
00000190: c47e 04a0 0957 6e3f b4f1 ffbf a208 d23f
000001a0: 0000 0020 9ff3 cebf 0000 0080 1cf7 d23f
000001b0: 0000 0040 c0ab cf3f 0000 0000 f349 cf3f
000001c0: 5bfe ff7f f119 cebf 85fe ffbf 0d1b b03f
000001d0: a100 0020 1fc0 b9bf 9505 0060 a2a3 d3bf
000001e0: 0000 0000 477a b6bf 0000 0040 3cd2 d0bf
000001f0: 0000 00e0 0b39 bebf 0000 0000 99a8 ce3f

multihead_attn.W_k.bias f8 [8]
-0.1943969428539276 0.28566572070121765 0.15293535590171814 0.2080879658460617 0.23581789433956146 -0.22985799610614777 -0.1001056358218193 -0.030162138864398003
00000000: 0000 00c0 ffe1 c8bf 0000 00e0 5848 d23f
00000010: 0000 00c0 6293 c33f 0000 0060 a0a2 ca3f
00000020: 0000 00e0 472f ce3f 0000 00a0 fc6b cdbf
00000030: 0000 00e0 85a0 b9bf 0000 00e0 d2e2 9ebf

multihead_attn.W_v.weight f8 [8, 8]
-0.12098113447417658 0.014070598408598535 -0.03609658405136672 -0.23462450504302818 -0.03917570412158966 0.25795379281044006 0.12907177209854126 -0.3431668281555176
0.07953190058466825 -0.1501264870166703 -0.3012807965279047 0.1966466158629442 -0.04131254926323891 -0.02266611158847809 -0.07943020015954971 0.24204500019550323
0.1101818084717413 -0.06645293533803338 0.308668136596805 -0.2922333478929602 -0.19319352507591248 -0.23710215091705322 0.06063152849674225 -0.0017781333299353719
-0.30781066417698655 -0.12339530885218167 -0.11431109905244606 0.06634584069273597 0.275934100151062 0.13505426049232483 -0.33104878664016724 -0.17621028423309326
0.1790425926446255 0.13901767134668558 -0.3287445306778581 -0.10127575695486082 0.19426485896110535 0.30628570914268494 0.29000604152679443 -0.24595758318901062
-0.07106999307871167 0.21568004786968326 -0.13707120716572999 -0.225705474615086 0.28702113032341003 0.28307080268859863 -0.05783546343445778 -0.24606527388095856
-0.21248662471759894 -0.3390915691852855 -0.2751408219337055 0.058024406432382825 0.21663399040699005 0.2884008586406708 -0.35008519887924194 0.021616149693727493
-0.03867487609391805 0.2472082525491921 0.10351531207559025 0.1403645575049094 -0.015632644295692444 -0.08414807915687561 -0.35326460003852844 0.18225286900997162
00000000: 98e3 ff9f 9ef8 bebf 212a 00c0 0bd1 8c3f
00000010: 5ef1 fe5f 407b a2bf c6ff ffff 2c08 cebf
00000020: 0000 0080 d60e a4bf 0000 00a0 5082 d03f
00000030: 0000 0080 6c85 c03f 0000 0000 72f6 d5bf
00000040: b4f7 ffdf 335c b43f f0fe ff3f 5837 c3bf
00000050: f702 0040 2f48 d3bf c50d 0060 b72b c93f
00000060: 0000 0020 eb26 a5bf 0000 0000 c935 97bf
00000070: 0000 00a0 8955 b4bf 0000 00a0 54fb ce3f
00000080: 5811 0000 e034 bc3f ad03 0040 0f03 b1bf
00000090: d108 0000 38c1 d33f 000e 0080 f3b3 d2bf
000000a0: 0000 00c0 90ba c8bf 0000 0000 5d59 cebf
000000b0: 0000 0080 180b af3f 0000 0020 0822 5dbf
000000c0: 3603 0080 2bb3 d3bf 0afc ffbf d596 bfbf
000000d0: bf04 0000 7e43 bdbf c03c 0080 0afc b03f
000000e0: 0000 0080 e7a8 d13f 0000 0040 7549 c13f
000000f0: 0000 0040 e72f d5bf 0000 0000 0f8e c6bf
00000100: b7f6 ff1f deea c63f fa02 00c0 54cb c13f
00000110: 6904 0080 260a d5bf 82af ff3f 35ed b9bf
00000120: 0000 00c0 abdd c83f 0000 0060 2f9a d33f
00000130: 0000 0080 758f d23f 0000 00c0 897b cfbf
00000140: da00 00a0 a431 b2bf 2200 0060 679b cb3f
00000150: ad01 00a0 8c8b c1bf 72fe ffbf eae3 ccbf
00000160: 0000 00e0 8d5e d23f 0000 0000 d51d d23f
00000170: 0000 0020 9c9c adbf 0000 0020 117f cfbf
00000180: 08f0 ffff c232 cbbf 0202 0020 adb3 d5bf
00000190: 20fd ff3f e89b d1bf 3069 feff 5fb5 ad3f
000001a0: 0000 00a0 a9ba cb3f 0000 00e0 2875 d23f
000001b0: 0000 00c0 cb67 d6bf 0000 0040 8b22 963f
000001c0: 2e1e 0080 31cd a3bf e802 0020 85a4 cf3f
000001d0: 0ef9 ffbf fa7f ba3f f423 0040 77f7 c13f
000001e0: 0000 0000 0102 90bf 0000 0080 ba8a b5bf
000001f0: 0000 0020 e39b d6bf 0000 00e0 0f54 c73f

multihead_attn.W_v.bias f8 [8]
-0.17774724960327984 -0.2569720149040276 0.16195276379585036 -0.054657969623800935 -0.29486545920371815 0.06169030070304392 -0.09188341349364758 -0.06258423626421793
00000000: 2d01 0000 6cc0 c6bf 6100 00c0 3a72 d0bf
00000010: adff ff3f deba c43f 39fe ff1f 21fc abbf
00000020: ddff ff5f 13df d2bf 4efd ffff de95 af3f
00000030: 0704 00e0 ab85 b7bf effc ff3f 8505 b0bf

multihead_attn.W_o.weight f8 [4, 8]
-0.2683667540550419 -0.3049989938736156 -0.11588435620112159 -0.03721338883034944 -0.036498494446306116 -0.05579003691674192 -0.2081976234912616 0.1791646927594996
-0.11237280815833796 -0.004497321322583191 0.11167059838795008 0.07281377911571872 -0.0671036392449874 0.08780869841575899 0.2429692447184391 -0.10952263325457783
0.34013733267775426 0.21971476078040159 -0.21383199095732394 -0.2690454125405741 0.17358154058450934 0.17363978922365575 0.005894194357265488 0.14788216352473785
-0.03896387666471681 0.2372845560312653 -0.04519697278771489 0.2332052141427602 0.2648478448390725 -0.030058078467884403 -0.3056194484232724 0.2346519827843591
00000000: 5101 00c0 eb2c d1bf 5e01 0080 1a85 d3bf
00000010: 1078 00e0 98aa bdbf 64d6 ff1f a20d a3bf
00000020: 0b10 0040 eeaf a2bf 2405 0000 8390 acbf
00000030: 65fc ff3f 38a6 cabf fefd ff5f deee c63f
00000040: 31ef ffdf 76c4 bcbf 0c67 0080 c86b 72bf
00000050: 4541 00c0 7196 bc3f c70b 0080 eca3 b23f
00000060: 17f3 ff3f b42d b1bf c700 0080 a17a b63f
00000070: 29f0 ffbf 9d19 cf3f 030e 00e0 ac09 bcbf
00000080: e2f9 ff5f cfc4 d53f 7209 0000 9d1f cc3f
00000090: fb08 00c0 d85e cbbf bc09 0040 0a38 d1bf
000000a0: 47f8 ff7f eb37 c63f dcfd ff1f d439 c63f
000000b0: 22f6 02c0 8224 783f 810f 0080 cded c23f
000000c0: 132c 00c0 12f3 a3bf 6005 0020 575f ce3f
000000d0: 67bc 00c0 0e24 a7bf 7cfa ff1f abd9 cd3f
000000e0: 57fe ff5f 44f3 d03f 552b 0080 8bc7 9ebf
000000f0: 08f8 ffdf 448f d3bf 5d0c 0080 1309 ce3f

multihead_attn.W_o.bias f8 [4]
0.1493706256151441 -0.30421227216723506 0.19441089034079947 -0.22213436663150132
00000000: 6703 00a0 931e c33f 0f02 00c0 3678 d3bf
00000010: 37ff ffbf 74e2 c83f 14ff ff1f e66e ccbf

encoder_variable_priming.flattened_snp.fc1.module.weight f8 [4, 4]
0.44311630725861184 -0.2440912723541255 0.47951167821886376 0.4756675362586826 -0.4837787151336769 0.3303509354591404 0.3954422473907205 -0.36719435453413857
0.15223681926720767 -0.1490511894225886 -0.05738788843164853 0.45989298820495017 -0.21421146392828222 0.16157323122027353 0.19990289211258652 0.1345328688621931
00000000: 6a00 0080 045c dc3f efff ffff 613e cfbf
00000010: 9001 00c0 51b0 de3f f3fe ff3f 5671 de3f
00000020: b200 0000 3bf6 debf 3e00 0040 7824 d53f
00000030: 21fe ffff ec4e d93f 41ff ffbf 1c80 d7bf
00000040: d0f6 ffff 7e7c c33f 5afd ffff 1b14 c3bf
00000050: fd37 0000 f261 adbf 96ff ffff e26e dd3f
00000060: 6208 0000 486b cbbf f703 0080 6eae c43f
00000070: 89eb ffff 6a96 c93f c505 0080 5f38 c13f

encoder_variable_priming.flattened_snp.fc1.module.bias f8 [4]
0.49339407682418174 -0.13454288244247042 0.15583324432372253 -0.44634217023848144
00000000: 8bff ffbf c493 df3f 72ff ff7f b338 c1bf
00000010: e2fe ffff 57f2 c33f 0eff ffbf de90 dcbf

encoder_variable_priming.flattened_snp.context.module.bias f8 [4]
0.0 0.0 0.0 0.0
00000000: 0000 0000 0000 0000 0000 0000 0000 0000
00000010: 0000 0000 0000 0000 0000 0000 0000 0000

encoder_variable_priming.flattened_snp.fc2.module.weight f8 [4, 4]
-0.19255423545843064 0.2638095021247172 0.37668740749369234 -0.14807540178303968 0.004236459731967754 -0.17172354459765832 -0.40409833192819855 -0.09097224473956766
-0.2276234030723532 -0.4706621170043968 0.14721494913101105 -0.04275673627853305 -0.4239201545716573 0.342566788196442 -0.24669212102879132 0.45385503768911617
00000000: f807 0000 9ea5 c8bf 22fb ff3f 41e2 d03f
00000010: 1c07 0080 a51b d83f 1007 0080 22f4 c2bf
00000020: 1774 feff 3f5a 713f 9604 0080 09fb c5bf
00000030: 28fc ff3f bfdc d9bf e809 0000 f549 b7bf
00000040: 71ff ff7f c322 cdbf 2900 0000 541f debf
00000050: dfff ff7f f0d7 c23f 80ff ffff 35e4 a5bf
00000060: bc08 0000 8221 dbbf 6ff7 ff3f 9dec d53f
00000070: aff0 ff7f 9b93 cfbf 78f9 ffff f50b dd3f

encoder_variable_priming.flattened_snp.fc2.module.bias f8 [4]
-0.4637457728385514 -0.08630025386808965 0.039169847965242366 0.3504870533943903
00000000: 1bfd ffbf 02ae ddbf 3cfc ffff c517 b6bf
00000010: 1001 0000 120e a43f 1d05 0040 616e d63f

encoder_variable_priming.flattened_snp.glu.module.fc1.weight f8 [4, 4]
-0.10652118921281024 -0.4549149870872263 -0.241115808486983 -0.10782778263089944 0.12113797664642836 0.21118456125259594 -0.2080541253089791 0.3951120972633283
-0.02457010746002095 -0.3644104599952718 -0.07736390829085946 0.28196859359741216 -0.4189141988754628 0.34015548229215226 -0.2469829916953863 0.10977792739853784
00000000: 2503 0000 f944 bbbf 59fe ffbf 531d ddbf
00000010: 4406 0000 e2dc cebf 19fa ffff 999a bbbf
00000020: 6a01 0000 e602 bf3f 4600 0080 1808 cb3f
00000030: 66fe ff7f 84a1 cabf 72ff ff3f 8449 d93f
00000040: d9fe ffff e728 99bf 2400 0040 8052 d7bf
00000050: fefe ffff 1ece b3bf 0100 0000 c60b d23f
00000060: 8002 0080 7dcf dabf 61fe ff7f 1bc5 d53f
00000070: 80fd ff7f 239d cfbf 86d7 ffff 671a bc3f

encoder_variable_priming.flattened_snp.glu.module.fc1.bias f8 [4]
0.3395624756812846 0.47960197925567266 -0.23269259929656927 0.054134011268646566
00000000: 92fe ff3f 64bb d53f bfff ff7f ccb1 de3f
00000010: ecff ffff dec8 cdbf 5d11 0000 74b7 ab3f

encoder_variable_priming.flattened_snp.glu.module.fc2.weight f8 [4, 4]
0.08251863718031234 -0.30170202255240763 0.046869277953968745 -0.15728753805146947 0.2790126204490818 0.25697171688080495 -0.02459549903870753 0.08025699853887255
-0.21904587745666687 -0.07352310419084523 -0.12200933694839765 -0.1546977758407563 0.4875153303146341 -0.26770222187051357 -0.22973239421845337 0.054776370525693174
00000000: 7dfb ffff f01f b53f 30fa ffff 154f d3bf
00000010: 3bb5 ffff 3fff a73f e5ec ff7f ff21 c4bf
00000020: 1a01 00c0 57db d13f 7700 0080 3972 d03f
00000030: a80c 0000 902f 99bf 4ee4 ffff b88b b43f
00000040: 4200 0000 b209 ccbf 4c05 0000 69d2 b2bf
00000050: cf00 0000 013c bfbf 95ff ffff 22cd c3bf
00000060: daff ff7f 7333 df3f 6b06 0080 0822 d1bf
00000070: 3401 0000 df67 cdbf 80bb 0000 a60b ac3f

encoder_variable_priming.flattened_snp.glu.module.fc2.bias f8 [4]
-0.21272104978560863 0.36258375644681107 -0.02641427516936844 0.3536773920059338
00000000: 3eff ff7f 713a cbbf 14fe ff7f 9234 d73f
00000010: 5dfb ffff 570c 9bbf f100 0080 a6a2 d63f

encoder_variable_priming.single_variable_snps.0.skip_layer.module.weight f8 [4, 1]
0.8974167108542952 -0.9713618755357527 0.7791068553942929 0.5063996314990981
00000000: 4819 0040 a3b7 ec3f a43b 0080 6515 efbf
00000010: a140 0080 71ee e83f add7 ffff 6c34 e03f

encoder_variable_priming.single_variable_snps.0.skip_layer.module.bias f8 [4]
0.4945700168608911 0.9137043952943552 -0.8440989255906969 0.6462274789811155
00000000: 04fb ffff 08a7 df3f d505 0000 113d ed3f
00000010: 6506 00c0 db02 ebbf 6e03 0040 e5ad e43f

encoder_variable_priming.single_variable_snps.0.fc1.module.weight f8 [4, 1]
-0.621095657348733 0.5789006948470982 0.8501183986663776 -0.06531190872194836
00000000: 8603 0000 04e0 e3bf b1ff ffbf 5a86 e23f
00000010: daff ff7f 2b34 eb3f e806 0000 48b8 b0bf

encoder_variable_priming.single_variable_snps.0.fc1.module.bias f8 [4]
-0.8034765720367336 0.5740665197372463 -0.08821845054626284 -0.2529921531677318
00000000: aaff ff7f 14b6 e9bf 1800 00c0 c05e e23f
00000010: 7eff ffff 7b95 b6bf 8200 0000 0631 d0bf

encoder_variable_priming.single_variable_snps.0.fc2.module.weight f8 [4, 4]
-0.32733201980578813 0.40481364727017455 -0.19578236341479058 -0.4437862634658711 -0.2563704848292984 0.051587998867116694 -0.44503337144843585 -0.3967195153236675
0.18550759553894772 0.12439018487935723 -0.04459536075586433 -0.1455256938934422 -0.11578077077892503 -0.2756357789038533 -0.4787901043890719 0.30998992919920343
00000000: 8df7 ffff 01f3 d4bf 06fe ff7f 77e8 d93f
00000010: af03 0080 650f c9bf 47ff ff7f fe66 dcbf
00000020: 9718 00c0 5f68 d0bf 0a2e 0000 be69 aa3f
00000030: 4dfa ff3f 6d7b dcbf 0302 0040 da63 d9bf
00000040: 8deb ff7f b6be c73f 450f 0000 09d8 bf3f
00000050: 6ee0 ffff 33d5 a6bf 5901 0000 96a0 c2bf
00000060: b94b 0000 cfa3 bdbf 69f8 ff3f 04a4 d1bf
00000070: a4f7 ff3f 7fa4 debf ecfe ffff dfd6 d33f

encoder_variable_priming.single_variable_snps.0.fc2.module.bias f8 [4]
0.35184830427171243 0.2313296794890898 0.13475310802456508 0.058007538318564394
00000000: 0401 00c0 ae84 d63f 89f9 ffff 359c cd3f
00000010: 7cfb ffff 963f c13f ccd8 ffff 29b3 ad3f

encoder_variable_priming.single_variable_snps.0.glu.module.fc1.weight f8 [4, 4]
0.4061371088027969 -0.2103843688964785 -0.19686663150789177 -0.14701944589617885 -0.2332444190978118 -0.15828073024747147 0.08680731058117609 -0.08715909719466947
-0.06388360261925546 -0.4435420036316163 0.3741596341133291 0.3718149662017765 0.32496565580362874 -0.3514425158500874 0.4966248273849371 0.1608184576034303
00000000: 1b00 0080 26fe d93f 2cff ffff dfed cabf
00000010: 9102 0000 ed32 c9bf 3f04 0080 88d1 c2bf
00000020: 88f3 ffff f3da cdbf 54fc ffff 8a42 c4bf
00000030: 39f7 ffff 0039 b63f 64ff ffff 0e50 b6bf
00000040: bc17 0000 ad5a b0bf b901 0000 fe62 dcbf
00000050: 3801 0040 3bf2 d73f 99ff ffff d0cb d73f
00000060: 5dfc ffbf 3ccc d43f 6d01 00c0 087e d6bf
00000070: 2eff ff7f b3c8 df3f 95fc ffff b295 c43f

encoder_variable_priming.single_variable_snps.0.glu.module.fc1.bias f8 [4]
0.11321669816969418 0.22812235355375676 0.17060673236847892 -0.33999657630920643
00000000: 0afc ffff c4fb bc3f dcfd ffff 1c33 cd3f
00000010: 5d01 0000 71d6 c53f 2a00 0000 81c2 d5bf

encoder_variable_priming.single_variable_snps.0.glu.module.fc2.weight f8 [4, 4]
0.022757649421711938 -0.13516825437543126 0.1462752223014603 0.45676994323726394 0.2739490866657599 0.22425693273534497 -0.39507913589466886 0.43607479333885724
0.19249665737189445 0.42547160387051464 -0.35944938659681314 0.39083302021014854 -0.2024298310280302 -0.2595742940903451 -0.2984939813612896 -0.37913864850989093
00000000: 9116 0000 c84d 973f 45fc ff7f 314d c1bf
00000010: c9fc ff7f 25b9 c23f 22fd ffff b73b dd3f
00000020: 90e7 ffbf 6188 d13f 30f2 ff7f 73b4 cc3f
00000030: 81f8 ffff f948 d9bf be05 0040 a6e8 db3f
00000040: 8f34 0000 bba3 c83f a408 0040 ed3a db3f
00000050: 6409 0000 3801 d7bf baf7 ff7f 6803 d93f
00000060: 6a06 0080 38e9 c9bf 3705 0080 dd9c d0bf
00000070: fef8 ff7f 861a d3bf c9f9 ffbf ce43 d8bf

encoder_variable_priming.single_variable_snps.0.glu.module.fc2.bias f8 [4]
-0.04147046804430174 0.003964960575217929 0.15578490495668382 0.22484725713735368
00000000: ac0b 0000 9e3b a5bf 2c02 0200 903d 703f
00000010: 2bed ff7f c2f0 c33f c107 0080 cbc7 cc3f

encoder_variable_priming.single_variable_snps.1.skip_layer.module.weight f8 [4, 1]
-0.3972945213316487 0.8886640071870163 0.0691148042674051 0.4309498071672533
00000000: 43f6 ffff 456d d9bf 7504 0080 ef6f ec3f
00000010: 6679 ffff 81b1 b13f 140e 0080 ae94 db3f

encoder_variable_priming.single_variable_snps.1.skip_layer.module.bias f8 [4]
-0.4227601289749136 -0.12670397758483798 0.5683705806732123 -0.024518966674801843
00000000: efff ff7f 800e dbbf e0ff ffff d537 c0bf
00000010: cfff ff7f 1730 e23f ccfc ffff 7f1b 99bf

encoder_variable_priming.single_variable_snps.1.fc1.module.weight f8 [4, 1]
-0.552645206451416 -0.4425680637359619 0.7223243713382069 0.4033217430114525
00000000: 0000 0000 45af e1bf 0000 0000 0953 dcbf
00000010: 210b 0000 481d e73f 72fe ffff 05d0 d93f

encoder_variable_priming.single_variable_snps.1.fc1.module.bias f8 [4]
0.9027302265167236 0.6658668518066406 -0.028641343116757045 0.8409065008163448
00000000: 0000 0080 2ae3 ec3f 0000 0000 c84e e53f
00000010: 63fc ffff 2754 9dbf fcff ffbf b4e8 ea3f

encoder_variable_priming.single_variable_snps.1.fc2.module.weight f8 [4, 4]
0.3641070723533559 0.19567757844924205 -0.40619212388965287 -0.07409107685073653 0.07121151685715915 0.1832380294799924 -0.4820079803471592 0.25840544700595175
0.2304615974426502 -0.20716327428815423 -0.11013281345465248 -0.14507400989588276 -0.06621474027633564 -0.18649923801422016 0.022037625312775165 0.4634144902229136
00000000: 7fff ffbf 874d d73f fcfe ff7f f60b c93f
00000010: fcec ff3f 0dff d9bf 7dd4 ffff a1f7 b2bf
00000020: 5c03 0000 eb3a b23f ae01 0000 5874 c73f
00000030: be21 0000 38d9 debf bbec ffff b689 d03f
00000040: 4603 0000 c47f cd3f bafc ff7f 5384 cabf
00000050: 5413 0100 aa31 bcbf 8a4e 0000 c991 c2bf
00000060: b6ff ffff 72f3 b0bf dbff ffff 34df c7bf
00000070: 36de ffff 0791 963f c8fe ff3f 95a8 dd3f

encoder_variable_priming.single_variable_snps.1.fc2.module.bias f8 [4]
-0.35988348722457475 0.25871467590331354 -0.3445877432823313 0.1605706810951227
00000000: b6ff ffbf 5408 d7bf 86ff ffff c78e d03f
00000010: ee00 00c0 b90d d6bf ebff ff7f 948d c43f

encoder_variable_priming.single_variable_snps.1.glu.module.fc1.weight f8 [4, 4]
0.24220913648605347 0.3865893483161926 0.03461939096423908 -0.35901111364364624 0.027645111083781773 0.11024844646452606 -0.3953585028648461 0.44430041313171387
0.38078629970546646 -0.47672903537753053 0.41429632902145386 -0.10028135776519842 -0.290123164653795 -0.3512912988662863 -0.10697931051257074 -0.38191449642179065
00000000: 0000 0080 b500 cf3f 0000 0040 e1bd d83f
00000010: 9468 ffff a1b9 a13f 0000 00c0 09fa d6bf
00000020: e41b ffff ff4e 9c3f 7afc ffff 3d39 bc3f
00000030: 9800 00c0 8d4d d9bf 0000 0000 6b6f dc3f
00000040: 43fd ff7f cd5e d83f fa01 0080 ba82 debf
00000050: 0000 00c0 d483 da3f 3000 0000 0aac b9bf
00000060: 3101 00c0 6091 d2bf 0201 0080 8e7b d6bf
00000070: e307 0000 ff62 bbbf 5cfe ff7f 4971 d8bf

encoder_variable_priming.single_variable_snps.1.glu.module.fc1.bias f8 [4]
0.3586224317550734 -0.4136545062065102 0.049436688423157286 0.3405323028564466
00000000: 8700 0080 abf3 d63f d7ff ffbf 5079 dabf
00000010: 4f00 0000 c44f a93f 1700 0000 48cb d53f

encoder_variable_priming.single_variable_snps.1.glu.module.fc2.weight f8 [4, 4]
0.1501617431640625 0.10296124219894409 -0.3866531848907747 -0.1455521583557129 -0.4485356807706925 -0.1952682733534146 -0.4812840819360339 0.07583415508279062
0.19430834054947047 0.18399178981827724 -0.21290093660355278 0.09838491678243051 0.16287565231304765 -0.08940356969934352 0.34621375799211374 -0.1262700557707796
00000000: 0000 0000 8038 c33f 0000 0000 ab5b ba3f
00000010: f201 0000 edbe d8bf 0000 0000 74a1 c2bf
00000020: 3af3 ffff ceb4 dcbf 31e9 ffff 8cfe c8bf
00000030: a60a 00c0 5bcd debf c418 0000 de69 b33f
00000040: 3500 0080 18df c83f c041 0000 0b8d c73f
00000050: ef00 0080 5640 cbbf 750e 0000 c12f b93f
00000060: ffe5 ffff 1bd9 c43f 3a1c 0100 27e3 b6bf
00000070: ba16 00c0 5d28 d63f b6f2 ffff 9d29 c0bf

encoder_variable_priming.single_variable_snps.1.glu.module.fc2.bias f8 [4]
-0.0585693717002867 0.3224801421165505 -0.3461027145385827 -0.20066738128661352
00000000: e8ff ffff cdfc adbf 4600 00c0 83a3 d43f
00000010: 9900 0000 8c26 d6bf effe ffff 77af c9bf

encoder_variable_priming.single_variable_snps.2.skip_layer.module.weight f8 [4, 1]
0.7833229303377739 0.9066551923705035 -0.224366307253551 0.5433425903287311
00000000: 773e 0040 fb10 e93f 5a5b ffbf 5103 ed3f
00000010: 9438 fdff 08b8 ccbf e38b ffff 0f63 e13f

encoder_variable_priming.single_variable_snps.2.skip_layer.module.bias f8 [4]
-0.815740823745811 -0.493591904639999 -0.40421521663687554 -0.45452809333786676
00000000: f002 0080 8c1a eabf 04f2 ff7f 0297 dfbf
00000010: 540f 0080 a9de d9bf bbf5 ffff fc16 ddbf

encoder_variable_priming.single_variable_snps.2.fc1.module.weight f8 [4, 1]
0.4490213394165092 -0.369304895400233 -0.7487312555314668 0.7906312942504882
00000000: 5f00 0000 c4bc dc3f f5c9 ffff b0a2 d7bf
00000010: 7b05 0040 9bf5 e7bf ffff ffff d94c e93f

encoder_variable_priming.single_variable_snps.2.fc1.module.bias f8 [4]
0.0195826292037956 -0.2273786067962987 0.45097219944001105 -0.8118877410888672
00000000: 1dff ffff 770d 943f cb04 0000 be1a cdbf
00000010: 9b00 0080 badc dc3f 0000 0000 fcfa e9bf

encoder_variable_priming.single_variable_snps.2.fc2.module.weight f8 [4, 4]
-0.20839482545874383 0.14144688844776168 0.08744025230613058 -0.04462480545065879 0.23564583063125322 -0.05786132812498765 -0.42356669902798855 -0.11677646636963174
-0.27862519025801175 0.4361220598220423 -0.1871838569642008 -0.05302780866621472 -0.38931775093098164 -0.41534119844342143 -0.03188389539516327 0.4135115742681447
00000000: 921e 0080 aeac cabf 3d86 0080 ee1a c23f
00000010: fd41 0200 7c62 b63f 7a7b 0000 10d9 a6bf
00000020: 98ff ff7f a429 ce3f 0cf9 ffff ff9f adbf
00000030: 21fe ff7f b71b dbbf cc00 0000 10e5 bdbf
00000040: fdfe ffbf fed4 d1bf 2bfd ff7f 6ce9 db3f
00000050: 980c 0000 a4f5 c7bf d2f7 ffff 7526 abbf
00000060: c20d 0000 95ea d8bf 80bd ff3f f394 dabf
00000070: 268d fbff 1553 a0bf 2ff2 ff3f f976 da3f

encoder_variable_priming.single_variable_snps.2.fc2.module.bias f8 [4]
0.31445157527936063 0.4036030173301713 0.049947738647452666 -0.09999018907535828
00000000: c808 0080 f91f d43f 1d00 00c0 a1d4 d93f
00000010: 58fb ffff bf92 a93f 90e0 ffff f498 b9bf

encoder_variable_priming.single_variable_snps.2.glu.module.fc1.weight f8 [4, 4]
-0.2577362060546831 0.26067948341368313 0.11013513803481337 -0.29965758323666325 -0.3597982525824537 -0.3381155133250403 0.32090723514559144 0.4394689798353592
0.2687919139862391 -0.4648629426956171 0.17192059755324204 -0.27568477392193047 0.43120515346528177 0.49343723058700223 -0.10361558198928335 0.24924242496494975
00000000: b1ff ffff bf7e d0bf 13ff ffff f8ae d03f
00000010: fafd ffff d031 bc3f d0fd ffff 962d d3bf
00000020: 38f9 ff3f ef06 d7bf 4e15 0040 afa3 d5bf
00000030: 9701 0080 be89 d43f 5ff5 ff7f 4220 dc3f
00000040: 5302 0000 e333 d13f f6ff ff7f 50c0 ddbf
00000050: 6ffe ff7f 7e01 c63f 76fd ffbf d1a4 d1bf
00000060: c200 0080 dd98 db3f c3ff ffbf 7994 df3f
00000070: 99fe ffff 8c86 babf 5406 0000 2de7 cf3f

encoder_variable_priming.single_variable_snps.2.glu.module.fc1.bias f8 [4]
0.43870270252227533 -0.09286731481550671 -0.28027898073196594 -0.4268785119056688
00000000: d3ff ff7f b413 dc3f e9fb ffff 26c6 b7bf
00000010: 2100 0040 17f0 d1bf e7ff ff3f fa51 dbbf

encoder_variable_priming.single_variable_snps.2.glu.module.fc2.weight f8 [4, 4]
-0.3888565897942509 0.15895128250122703 0.45727246999738597 -0.4595535993575653 -0.011031031608430077 -0.1500155925766555 0.4340218901635149 0.11830449104270692
-0.4594129920012874 -0.15513741969837713 0.3082458972929165 -0.26140487193949347 0.34206539392492336 0.25635617971420793 0.4550772905350004 0.36503934860217824
00000000: 7906 00c0 06e3 d8bf e400 0000 8458 c43f
00000010: 97fe ffbf f343 dd3f 35fd ff7f 5369 ddbf
00000020: eeaa feff 6f97 86bf afde 0000 b633 c3bf
00000030: 9006 00c0 03c7 db3f f193 ffff 3349 be3f
00000040: ca31 00c0 0567 ddbf fcc3 feff 8adb c3bf
00000050: bcf3 ffff 4cba d33f 3cb1 ff7f dbba d0bf
00000060: cb0e 0040 66e4 d53f 5b00 00c0 2368 d03f
00000070: eb01 0080 fc1f dd3f caf7 ffff cd5c d73f

encoder_variable_priming.single_variable_snps.2.glu.module.fc2.bias f8 [4]
0.14342212676999386 -0.3698207139967895 0.006788194179348282 0.04716390371326325
00000000: 63fc ffff a75b c23f 20f9 ff7f 24ab d7bf
00000010: 7eb7 fcff efcd 7b3f ca14 0000 de25 a83f

encoder_variable_priming.single_variable_snps.3.skip_layer.module.weight f8 [4, 1]
-0.48202443122276856 -0.0016050338725075027 0.25301718712167737 -0.9537075757978564
00000000: ff62 feff 7cd9 debf 41f7 72ff ff4b 5abf
00000010: 75dd 0000 6f31 d03f baf9 ffbf c584 eebf

encoder_variable_priming.single_variable_snps.3.skip_layer.module.bias f8 [4]
0.7571898698807858 -0.5013550519942853 -0.5906730890273479 -0.2674952745437589
00000000: db03 0040 e63a e83f a6fe ffbf 190b e0bf
00000010: 00fe ff3f cbe6 e2bf c4ff ff7f a41e d1bf

encoder_variable_priming.single_variable_snps.3.fc1.module.weight f8 [4, 1]
-0.28479743003845215 0.4471580982206007 0.41213870048515916 -0.693445086479187
00000000: 0000 0000 1f3a d2bf 34f0 ffff 3c9e dc3f
00000010: 0dfb ffff 7a60 da3f 0000 00c0 b330 e6bf

encoder_variable_priming.single_variable_snps.3.fc1.module.bias f8 [4]
-0.33904922008514404 0.2148133516311611 0.926813483238219 0.7117468118667603
00000000: 0000 0080 fbb2 d5bf 84ff ffff 007f cb3f
00000010: f5ff ffbf 74a8 ed3f 0000 0040 a1c6 e63f

encoder_variable_priming.single_variable_snps.3.fc2.module.weight f8 [4, 4]
-0.4397615194320476 -0.0519796609881534 0.04019540548296107 -0.025053381919840557 -0.4723852276801441 -0.33406937122435754 0.02717530727300092 -0.22277390956872448
-0.1324870586395192 -0.3473261594773657 0.19271063804614003 0.2273408174514842 -0.39264684915549614 -0.4288138747204409 0.028007090092737014 -0.12512964010245664
00000000: 93fe ff7f 0d25 dcbf 8ca8 0000 149d aabf
00000010: af5f ffff 7d94 a43f 2ae9 ffff 97a7 99bf
00000020: a0fb ff3f 8f3b debf e23f 0080 6461 d5bf
00000030: 6b33 fcff d7d3 9b3f 41f7 ffff da83 ccbf
00000040: fefe ffff 55f5 c0bf 4709 0080 973a d6bf
00000050: 76ee ffff bdaa c83f 0201 0000 8119 cd3f
00000060: ef04 0040 2021 d9bf 91b3 ffbf af71 dbbf
00000070: 9589 0400 e4ad 9c3f e009 0080 3f04 c0bf

encoder_variable_priming.single_variable_snps.3.fc2.module.bias f8 [4]
0.31927996873854436 0.11027687788006109 0.36762762069701743 0.2953130602837008
00000000: 30ff ff3f 156f d43f 0df6 ffff 1a3b bc3f
00000010: b7ff ffff 3587 d73f cf02 00c0 68e6 d23f

encoder_variable_priming.single_variable_snps.3.glu.module.fc1.weight f8 [4, 4]
-0.16948020458221974 0.41357040405287343 0.04638820886609295 -0.37984311580638436 0.4163046479225149 -0.30364733934401866 -0.4000628590583713 0.41793721914292803
-0.2758858203887803 0.01909375190710472 0.13467723131168485 -0.49362814426422125 -0.256121754646304 0.4178561568260183 -0.34104478359221857 0.17197072505950578
00000000: c200 0000 87b1 c5bf c909 0000 f077 da3f
00000010: 1ef1 ffff 31c0 a73f 43f2 ff7f 594f d8bf
00000020: efff ff3f bca4 da3f 94ff ff3f f56e d3bf
00000030: 61ff ff3f a19a d9bf 0001 00c0 7bbf da3f
00000040: 0aff ffff 1ca8 d1bf 61ed feff 4f8d 933f
00000050: 10f0 ff7f 1a3d c13f 0100 0080 9a97 dfbf
00000060: 3100 0080 4c64 d0bf eeff ffbf 27be da3f
00000070: 9cff ff7f add3 d5bf 82ff ffff 2203 c63f

encoder_variable_priming.single_variable_snps.3.glu.module.fc1.bias f8 [4]
0.3013595938682505 -0.17910206317901706 -0.46223956346509626 -0.2800753712654123
00000000: a4ff ffbf 7949 d33f 2200 0000 d1ec c6bf
00000010: 71fe ff3f 5595 ddbf 1100 0040 c1ec d1bf

encoder_variable_priming.single_variable_snps.3.glu.module.fc2.weight f8 [4, 4]
-0.043574035167626174 -0.1924679875376664 -0.08240139484433442 0.3059132695190436 -0.3223377466201844 -0.335819780826595 -0.20884025096891756 0.3614985346793692
-0.16906124353406352 -0.40134847164183635 -0.3660746216774856 0.3767382502553982 0.1544433832168494 0.4667502045631412 -0.3884888887405171 0.07434344291686011
00000000: c4d9 ffff 554f a6bf bd27 0080 caa2 c8bf
00000010: 9a4e 0000 4218 b5bf 5bca ff3f 1594 d33f
00000020: 6f00 0080 2ea1 d4bf dc01 0040 127e d5bf
00000030: d0fd ffff 46bb cabf eefc ffbf ca22 d73f
00000040: 89fc ff7f cca3 c5bf d114 0080 b1af d9bf
00000050: 1e06 0040 c46d d7bf e0f2 ffbf 7a1c d83f
00000060: cdfe ffff ccc4 c33f 0600 0040 3cdf dd3f
00000070: 6cfe ff7f 00dd d8bf 2ffd ffff 2b08 b33f

encoder_variable_priming.single_variable_snps.3.glu.module.fc2.bias f8 [4]
-0.12150907516473816 0.3492690920829756 0.33360052108766397 -0.3960307240486166
00000000: 06f0 ffff 371b bfbf e1ff ffbf 6c5a d63f
00000010: 3b01 0000 b659 d53f 2600 0040 9158 d9bf

decoder_variable_priming.flattened_snp.fc1.module.weight f8 [4, 4]
-0.10372614860537371 -0.2282739281654611 0.49145978689191294 0.31837797164918924 0.20876240705999133 -0.2077313663854285 0.304442584368361 -0.36388885944950355
0.050249100089008764 0.30097430977986506 0.3126152755967928 0.2674750085215311 0.31748431904510677 -0.17245012537169213 -0.385008752443687 -0.25672382095789487
00000000: 9c07 0000 cc8d babf 9003 0080 1438 cdbf
00000010: 4afe ffbf 1374 df3f 5c01 0000 4e60 d43f
00000020: c67b 7aff b9b8 ca3f 9e49 7d00 f196 cabf
00000030: 16cc d7bf fc7b d33f 0cb8 ad7f f449 d7bf
00000040: 544a 1203 40ba a93f 5234 5cc0 2943 d33f
00000050: a4c4 3a80 e301 d43f 1f3a 867f 4f1e d13f
00000060: faa8 d2bf a951 d43f 60cd 5480 d812 c6bf
00000070: 61d7 1ac0 fba3 d8bf 8592 c7bf 296e d0bf

decoder_variable_priming.flattened_snp.fc1.module.bias f8 [4]
0.4260514974594095 0.17547762393849442 0.23883473873283803 0.47000432014395416
00000000: daff ff7f 6d44 db3f 7c70 ffff 0c76 c63f
00000010: 99cc 0000 2392 ce3f cdce ffff 8c14 de3f

decoder_variable_priming.flattened_snp.context.module.bias f8 [4]
0.0 0.0 0.0 0.0
00000000: 0000 0000 0000 0000 0000 0000 0000 0000
00000010: 0000 0000 0000 0000 0000 0000 0000 0000

decoder_variable_priming.flattened_snp.fc2.module.weight f8 [4, 4]
-0.4781061410899229 -0.35282748943096914 0.014999568447590799 0.06504237649640683 0.028502166267115808 -0.4148806329691609 0.44675838958486813 -0.4507785438026476
0.18362981080962743 0.44221645598233217 0.11137890816982561 0.007010042685576253 0.043409645560618285 0.11575347153243588 -0.17312765130962465 -0.21909439575673825
00000000: eade ff7f 4a99 debf 5117 0fc0 b994 d6bf
00000010: 16fc 7dff 17b8 8e3f d5fb e7ff 9da6 b03f
00000020: abfe edff ab2f 9d3f 322a 967f 678d dabf
00000030: bcc2 1e80 b097 dc3f 6abc d73f 8ed9 dcbf
00000040: 06bf ff7f 2e81 c73f f29d 0c40 464d dc3f
00000050: f5b7 0d00 5483 bc3f 7cf4 3f01 90b6 7c3f
00000060: ba11 0700 ca39 a63f f959 a1fe 04a2 bd3f
00000070: 963d 3400 0c29 c6bf 938b 4100 490b ccbf

decoder_variable_priming.flattened_snp.fc2.module.bias f8 [4]
-0.4748570919039521 0.34555232525104995 -0.0633178949353478 0.043514966962890964
00000000: b012 0000 0f64 debf 14a4 0080 871d d63f
00000010: c9b6 ffff 9935 b0bf 66f9 fbff 9747 a63f

decoder_variable_priming.flattened_snp.glu.module.fc1.weight f8 [4, 4]
-0.430675745010376 -0.37069129943847656 -0.12887299060821533 0.2851747870452074 0.05043846368871345 -0.3594090938470409 -0.36050736905217184 0.10896873474053181
-0.33033889531842414 0.374295592318122 0.26282924412621356 0.47982585430094393 0.01571112871297785 -0.1935582756993838 -0.21498942375209165 -0.14621853828429596
00000000: 0000 0000 3190 dbbf 0000 0000 68b9 d7bf
00000010: 0000 0000 e97e c0bf 0230 00c0 4d40 d23f
00000020: c6cb 0100 12d3 a93f 7450 fdff 8e00 d7bf
00000030: fcf2 0280 8d12 d7bf d840 ffff 5fe5 bb3f
00000040: 5152 ffbf 4524 d5bf 25c5 0280 75f4 d73f
00000050: 5216 fdbf 31d2 d03f 34dc ff7f 77b5 de3f
00000060: 3d9e 0500 9416 903f 65df ff7f 84c6 c8bf
00000070: ad24 0000 c684 cbbf 2fff ffff 49b7 c2bf

decoder_variable_priming.flattened_snp.glu.module.fc1.bias f8 [4]
-0.2665681838992706 -0.11065030097959917 -0.33124738931647657 -0.4681304097176189
00000000: 4418 0000 740f d1bf c1fb ffff 9353 bcbf
00000010: 36fa ff3f 2833 d5bf 2804 0040 d9f5 ddbf

decoder_variable_priming.flattened_snp.glu.module.fc2.weight f8 [4, 4]
0.18318605432650684 -0.3493690485818108 -0.1674436331964303 0.4151495099201578 -0.10400015115877215 0.43684506416111063 0.09677273035064766 0.2860519886021056
0.06034618617643546 -0.2065891623345297 -0.09008926154277531 0.48975712060964455 -0.2828721404060867 0.21408456563997239 -0.4008166193962085 -0.3609561324119163
00000000: 3d33 3500 a472 c73f 4f2f 79ff 0f5c d6bf
00000010: 6c44 4000 cb6e c5bf 2bae 0340 cf91 da3f
00000020: 1888 0100 c19f babf 696c ffff 44f5 db3f
00000030: 252b 0000 19c6 b83f a11d 0000 ad4e d23f
00000040: 2ada 2100 b2e5 ae3f d7a8 f77f 8371 cabf
00000050: e108 0c00 1710 b7bf 6919 0040 2e58 df3f
00000060: 2b98 ffbf 931a d2bf 1143 0080 1f67 cb3f
00000070: eaff ffbf faa6 d9bf 27fd ffbf e719 d7bf

decoder_variable_priming.flattened_snp.glu.module.fc2.bias f8 [4]
-0.47658920288250867 0.3340761065481618 -0.11364090442816038 0.06726956367491116
00000000: 0f74 0000 7080 debf 9ef5 ffbf 8061 d53f
00000010: 54be 0100 9217 bdbf 9cfb ffff 9338 b13f

decoder_variable_priming.single_variable_snps.0.skip_layer.module.weight f8 [4, 1]
0.1022179126739502 0.8997195980359348 0.8072016205816637 0.9900025138717368
00000000: 0000 0000 f42a ba3f b14e 24c1 80ca ec3f
00000010: 72a5 357e 98d4 e93f 402e 81c0 19ae ef3f

decoder_variable_priming.single_variable_snps.0.skip_layer.module.bias f8 [4]
-0.5786728858947754 -0.28146815299202715 -0.7224801778916299 -0.39235305785786057
00000000: 0000 0000 7d84 e2bf 8dd7 fdff 9203 d2bf
00000010: a4b0 01c0 8e1e e7bf fe0b ffff 4f1c d9bf

decoder_variable_priming.single_variable_snps.0.fc1.module.weight f8 [4, 1]
-0.10511362552642822 -0.5059570074081421 0.8736654515187565 0.4832609892258118
00000000: 0000 0000 bae8 babf 0000 00c0 cc30 e0bf
00000010: 5861 bd3f 11f5 eb3f fd13 0a80 bfed de3f

decoder_variable_priming.single_variable_snps.0.fc1.module.bias f8 [4]
-0.9628033638000488 -0.19451212882995605 0.6538197994213911 -0.9514902830121962
00000000: 0000 0000 49cf eebf 0000 0000 c6e5 c8bf
00000010: bbbf ff7f 17ec e43f 2df9 ffbf 9b72 eebf

decoder_variable_priming.single_variable_snps.0.fc2.module.weight f8 [4, 4]
-0.11633920669529343 -0.40794849395725635 -0.28298109773693186 -0.08577656748031769 -0.2735888958077757 0.4786747693915041 -0.01785057639560958 -0.3252585522418062
-0.15082502363676564 0.32923853398805125 0.20462053814798115 -0.24968552698602448 0.22262525558505755 -0.016841351985590645 0.040250539732359994 0.045083582375377636
00000000: eab5 ffff 67c8 bdbf 7bed ffff d31b dabf
00000010: b1a4 0ac0 5c1c d2bf 6f52 1700 74f5 b5bf
00000020: f0c2 0200 7b82 d1bf 103d fd7f 9ba2 de3f
00000030: f8e7 55e7 6b47 92bf 06dd 273f 09d1 d4bf
00000040: 601b f8ff 3b4e c3bf 50f2 0380 3e12 d53f
00000050: 72be b77b 0131 ca3f 8e41 5802 b2f5 cfbf
00000060: f52f 0000 fc7e cc3f 5980 feff db3e 91bf
00000070: bafa 97ff b79b a43f b90c c7ff 3115 a73f

decoder_variable_priming.single_variable_snps.0.fc2.module.bias f8 [4]
0.1614670157431059 0.21072745323752573 -0.4473820924840575 0.17950141429881739
00000000: eeea ff7f f3aa c43f 3424 0300 1ef9 ca3f
00000010: a93e 0280 e8a1 dcbf b8e4 ffff e6f9 c63f

decoder_variable_priming.single_variable_snps.0.glu.module.fc1.weight f8 [4, 4]
-0.3774374723434448 0.0699567198753357 0.08422023057937622 0.12722736597061157 0.25669747591018677 0.0882838964334571 0.06749516725928854 -0.22715556621552727
-0.05346411466712006 0.04688263103554511 0.2350424522709116 0.34782576560982015 -0.06174337863922146 0.0031242966646740206 0.20712125301595177 0.14702481031411588
00000000: 0000 0080 ef27 d8bf 0000 0000 afe8 b13f
00000010: 0000 0000 758f b53f 0000 0080 fc48 c03f
00000020: 0000 0040 bb6d d03f 4ef5 f1ff c599 b63f
00000030: 1346 0400 5d47 b13f b501 0000 6f13 cdbf
00000040: ec7e 0200 a65f abbf ada0 180e 0001 a83f
00000050: 296d d6fe de15 ce3f 8e05 0000 c742 d63f
00000060: 2700 0000 d49c afbf 9bc9 edff 1f98 693f
00000070: 7549 0100 f382 ca3f 31f7 ff7f b5d1 c23f

decoder_variable_priming.single_variable_snps.0.glu.module.fc1.bias f8 [4]
-0.1627597212791443 -0.017746686935317717 -0.15098202229916163 -0.07883512973784487
00000000: 0000 0080 4fd5 c4bf 6e87 ffff 2f2c 92bf
00000010: 2288 0700 6153 c3bf 6efd ffff 892e b4bf

decoder_variable_priming.single_variable_snps.0.glu.module.fc2.weight f8 [4, 4]
-0.3003488779067993 -0.4108463525772095 0.3758934736251831 0.24550914764404297 -0.05892157554626465 -0.3920871615413714 -0.28458970785078935 -0.053738534450530104
0.37862420085644116 -0.3064412460363982 0.10357451390288146 -0.4359195828277106 0.44344460964001176 -0.18442595047910973 0.32684564605067723 -0.4567154049959795
00000000: 0000 0080 ea38 d3bf 0000 0080 4e4b dabf
00000010: 0000 0080 a30e d83f 0000 0000 d86c cf3f
00000020: 0000 0000 f82a aebf 2f1b 00c0 f417 d9bf
00000030: 55d4 ffbf b736 d2bf 7eff ffff 9d83 abbf
00000040: 61c3 0900 613b d83f e6cb 77be bb9c d3bf
00000050: 1377 e9fd db83 ba3f 2e95 fb3f 1be6 dbbf
00000060: 1072 ff7f 6561 dc3f 01b6 eb00 459b c7bf
00000070: 6c2b 2800 0aeb d43f 4a60 0240 d33a ddbf

decoder_variable_priming.single_variable_snps.0.glu.module.fc2.bias f8 [4]
-0.3680952191352844 -0.08021312952038682 0.17475295065646926 0.3451796770130606
00000000: 0000 0040 df8e d7bf b7f7 ffff d888 b4bf
00000010: 0d7a f9ff 4d5e c63f c0f4 0080 6c17 d63f

decoder_variable_priming.single_variable_snps.1.skip_layer.module.weight f8 [4, 1]
0.855492353439331 0.581189513290192 -0.5155186653050868 0.9886417388476693
00000000: 0000 0080 3160 eb3f 4981 0bc0 1a99 e23f
00000010: 39d0 feff 207f e0bf 45f6 f9ff f3a2 ef3f

decoder_variable_priming.single_variable_snps.1.skip_layer.module.bias f8 [4]
-0.773810625076294 -0.47922766208617573 -0.913570165634121 0.07487511634810184
00000000: 0000 0080 0ec3 e8bf 1cea ff7f aaab debf
00000010: cbfe ff7f f73b edbf a0d1 ffff 032b b33f

decoder_variable_priming.single_variable_snps.1.fc1.module.weight f8 [4, 1]
-0.8451378345489502 -0.5687060356140137 -0.6815735101699829 0.27045857907711895
00000000: 0000 0080 5e0b ebbf 0000 0000 d732 e2bf
00000010: 0000 0040 73cf e5bf 4bc4 0380 314f d13f

decoder_variable_priming.single_variable_snps.1.fc1.module.bias f8 [4]
-0.8358736038208008 -0.9008511304855347 0.5066744089126587 -0.8263967037200416
00000000: 0000 0000 7abf eabf 0000 00c0 c5d3 ecbf
00000010: 0000 0040 ad36 e03f 33fe ff7f d771 eabf

decoder_variable_priming.single_variable_snps.1.fc2.module.weight f8 [4, 4]
0.10780721902843082 0.40396666526790226 0.33488291501994694 -0.2548656463604858 -0.21011263132103652 -0.3918415307999489 -0.4582598805428383 -0.2745334505999551
-0.23628175258630682 0.3197317123413665 -0.2734617590903657 -0.027176976206400385 0.15682047605544214 -0.4898990988728416 0.07192635536223534 -0.3963524699338006
00000000: 28f4 ffff 4099 bb3f 0afd ffff 96da d93f
00000010: 0afd ffbf b86e d53f 0280 ffff b74f d0bf
00000020: b40b 0080 f8e4 cabf da05 0080 ee13 d9bf
00000030: da05 0040 2154 ddbf 9907 ffbf f491 d1bf
00000040: d9f7 ffff 7a3e cebf 1304 0000 7c76 d43f
00000050: edfb ffbf 6580 d1bf 67ea 0a00 48d4 9bbf
00000060: c829 0080 b112 c43f 1deb ffbf 815a dfbf
00000070: 8f53 0000 c469 b23f e07c 03c0 d65d d9bf

decoder_variable_priming.single_variable_snps.1.fc2.module.bias f8 [4]
-0.3090776205062627 -0.1676561236381058 0.4942091703414587 -0.17091590166108803
00000000: 51fe ff7f edc7 d3bf 59f9 ff7f c175 c5bf
00000010: aefd ff7f 1fa1 df3f c317 0080 92e0 c5bf

decoder_variable_priming.single_variable_snps.1.glu.module.fc1.weight f8 [4, 4]
-0.4396626949310303 -0.39200687408447266 0.06040292978286743 -0.43869537115097046 -0.17132019996642828 -0.013922512531377166 0.34651392698287453 -0.13066458702089911
-0.034504890442113176 0.21435630321502713 -0.4072356224060066 -0.3997228145599365 0.2803888916967438 0.4664598107321553 -0.06813400983814737 -0.2584693431882393
00000000: 0000 0000 6f23 dcbf 0000 0000 a416 d9bf
00000010: 0000 0000 22ed ae3f 0000 00c0 9513 dcbf
00000020: aaff ffff d1ed c5bf a2d9 0000 6883 8cbf
00000030: a4ff ffbf 482d d63f 8803 0000 9eb9 c0bf
00000040: 167b 0000 a0aa a1bf 0a00 0000 0770 cb3f
00000050: 0d00 0000 2610 dabf 0000 0000 0f95 d9bf
00000060: e7f2 ff3f e4f1 d13f 9b8c ff3f 7ada dd3f
00000070: 230c 0000 3b71 b1bf 0dc6 0000 c38a d0bf

decoder_variable_priming.single_variable_snps.1.glu.module.fc1.bias f8 [4]
0.47709810733795166 -0.0641476511955213 -0.2532187104225117 0.1778358221054466
00000000: 0000 0080 c688 de3f a4fe ffff fa6b b0bf
00000010: b5ff ff3f bc34 d0bf 7905 0000 53c3 c63f

decoder_variable_priming.single_variable_snps.1.glu.module.fc2.weight f8 [4, 4]
-0.30340325832366943 -0.49511224031448364 0.2454543113708496 -0.161810040473938 0.2892977595297787 -0.00969779491897302 -0.01991081237824724 -0.2222986817546128
0.05569714307785757 0.4996600151057577 0.0811091065406488 -0.2576562762284344 0.37485706806302715 0.3808405399323832 0.27532488107693953 -0.0705943703579814
00000000: 0000 0080 f56a d3bf 0000 0040 ebaf dfbf
00000010: 0000 0000 0c6b cf3f 0000 0000 31b6 c4bf
00000020: 5b22 ffbf da83 d23f 3195 2900 70dc 83bf
00000030: 8865 0100 8063 94bf 953c 0a80 4874 ccbf
00000040: 1204 0000 5684 ac3f cbe0 ffff 6dfa df3f
00000050: 3df7 ffff 90c3 b43f 3ba8 00c0 707d d0bf
00000060: 5754 0080 a8fd d73f 4e09 0000 b15f d83f
00000070: ec08 0040 ec9e d13f 3d20 f8ff 7812 b2bf

decoder_variable_priming.single_variable_snps.1.glu.module.fc2.bias f8 [4]
-0.3435969948768616 0.31154465675382664 0.10391956567767184 0.034803330898176194
00000000: 0000 0040 7efd d5bf 2b14 0000 59f0 d33f
00000010: 2b08 0000 799a ba3f ccc2 ffff bdd1 a13f

decoder_variable_priming.single_variable_snps.2.skip_layer.module.weight f8 [4, 1]
-0.3485833406448364 0.3649563789895095 -0.4030487537886153 0.5957920551212188
00000000: 0000 0080 304f d6bf 627f 0e00 725b d73f
00000010: 5bcd 0d00 8dcb d9bf deca fe7f ba10 e33f

decoder_variable_priming.single_variable_snps.2.skip_layer.module.bias f8 [4]
-0.8241057395935059 0.6351600885394232 0.12761604785890693 0.5379979610442602
00000000: 0000 0000 135f eabf 8b0a 0040 3b53 e43f
00000010: e5d7 ffff b855 c03f 32fe ff7f 4737 e13f

decoder_variable_priming.single_variable_snps.2.fc1.module.weight f8 [4, 1]
0.6022545099275786 -0.3408975601196289 -0.6611689329147339 -0.6932201385498047
00000000: 173d 0040 ab45 e33f 0000 0000 44d1 d5bf
00000010: 0000 00c0 4b28 e5bf 0000 0000 dc2e e6bf

decoder_variable_priming.single_variable_snps.2.fc1.module.bias f8 [4]
0.6496083736419773 0.987450122833252 0.2331937551498413 0.7619391679763794
00000000: 5600 0080 97c9 e43f 0000 0000 3199 ef3f
00000010: 0000 0000 4bd9 cd3f 0000 0040 ce61 e83f

decoder_variable_priming.single_variable_snps.2.fc2.module.weight f8 [4, 4]
-0.03958684205760991 0.26562869548793683 -0.15261232852939713 -0.3442841172218715 0.23968899248935457 0.4958672523500243 0.2861306667329589 -0.17765235900861825
-0.4081004858084332 0.21810966730128215 -0.2901905775069149 -0.1584991812704952 0.08633148671384533 0.47290474176388336 0.3108313083646829 0.07604384422283723
00000000: 558c faff b944 a4bf 3dfd ff7f 0f00 d13f
00000010: 8505 0000 cd88 c3bf c302 0040 c008 d6bf
00000020: d7fa f9ff 20ae ce3f 050c 0000 4abc df3f
00000030: 050c 0000 f74f d23f f6e7 ffff 4fbd c6bf
00000040: 09da 0180 511e dabf a90e 0080 04eb cb3f
00000050: acf8 ff7f 7b92 d2bf 57f1 ff7f b349 c4bf
00000060: ec0f 0d00 d219 b63f f7f2 ff3f 1244 de3f
00000070: f7f2 ffff a8e4 d33f ddcb ffff 9b77 b33f

decoder_variable_priming.single_variable_snps.2.fc2.module.bias f8 [4]
-0.24040549993512783 0.03364861011495412 -0.405370891094267 -0.47981792688359215
00000000: dcfc ff7f 9bc5 cebf 4fc9 ffff 633a a13f
00000010: 2b04 00c0 98f1 d9bf 96f8 ff3f 56b5 debf

decoder_variable_priming.single_variable_snps.2.glu.module.fc1.weight f8 [4, 4]
0.37763118743896484 -0.08794313669204712 0.05294400453567505 0.27773094177246094 -0.4570699334144684 -0.3701387643814087 0.14374727010726943 -0.00645142793566859
0.014729559421295222 0.39323145151138306 0.021976351718925712 -0.10973381996111169 -0.28318512439728893 -0.13720875978465144 -0.36697161197662354 -0.3700965642929564
00000000: 0000 0000 1c2b d83f 0000 0000 7183 b6bf
00000010: 0000 0000 7a1b ab3f 0000 0000 58c6 d13f
00000020: a500 0040 a240 ddbf 0000 0080 5ab0 d7bf
00000030: 0500 0080 4f66 c23f ac6c f0ff cf6c 7abf
00000040: 5fda fdff 872a 8e3f 0000 0040 b42a d93f
00000050: 3337 acff f780 963f 3b85 ffff 8317 bcbf
00000060: c800 0080 b41f d2bf 61f9 ff7f 0e90 c1bf
00000070: 0000 0080 767c d7bf 6d03 0080 a9af d7bf

decoder_variable_priming.single_variable_snps.2.glu.module.fc1.bias f8 [4]
-0.40485382080078125 0.4104796648025929 -0.3902924656866214 0.3515698313713085
00000000: 0000 0000 20e9 d9bf ee02 0080 4c45 da3f
00000010: 91f3 ff3f 8dfa d8bf 1400 00c0 1e80 d63f

decoder_variable_priming.single_variable_snps.2.glu.module.fc2.weight f8 [4, 4]
-0.4508258104324341 0.4484308958053589 0.3163908123970032 -0.4273495078086853 0.13169294595668687 0.49457794427871704 0.07681548595428464 0.36439216137029634
-0.11230462789495492 0.33261913060415443 0.4759455919325412 -0.42760813236350953 -0.44210129976275353 -0.1784372925752658 -0.1822341680544736 0.23876428604129277
00000000: 0000 0080 54da dcbf 0000 0080 17b3 dc3f
00000010: 0000 0040 bf3f d43f 0000 00c0 b159 dbbf
00000020: 0fba ff7f 50db c03f 0000 0040 2aa7 df3f
00000030: feff ffff 2daa b33f 7144 0080 3352 d73f
00000040: 538f ffff febf bcbf c100 febf a149 d53f
00000050: dba3 0180 e475 de3f 7d50 0080 ee5d dbbf
00000060: f301 0040 634b dcbf baaf ff7f 08d7 c6bf
00000070: 5dfd 0000 7353 c7bf a504 0000 d48f ce3f

decoder_variable_priming.single_variable_snps.2.glu.module.fc2.bias f8 [4]
0.3522990942001343 -0.4625697731970858 -0.3189651370049946 -0.02879393100736059
00000000: 0000 0080 118c d63f caf9 ff3f be9a ddbf
00000010: 040a 00c0 ec69 d4bf 3be4 ffff 277c 9dbf

decoder_variable_priming.single_variable_snps.3.skip_layer.module.weight f8 [4, 1]
0.8977140188217163 -0.6585664749109826 0.3162921667118371 -0.07840895653247773
00000000: 0000 00c0 12ba ec3f 7582 ffff f912 e5bf
00000010: 5188 0080 213e d43f 023e 0500 9c12 b4bf

decoder_variable_priming.single_variable_snps.3.skip_layer.module.bias f8 [4]
0.43097949028015137 -0.730491757393382 0.1722766160961413 -0.6284012794489046
00000000: 0000 0000 2b95 db3f 8c11 0040 3060 e7bf
00000010: 00ce ffff 280d c63f 5bec ffff dc1b e4bf

decoder_variable_priming.single_variable_snps.3.fc1.module.weight f8 [4, 1]
0.587697505950931 -0.4763239622117122 -0.27624070644348886 0.6568744182586614
00000000: 1d00 0000 6bce e23f 4507 0080 177c debf
00000010: 0ceb ff7f edad d1bf ceff ff7f 1d05 e53f

decoder_variable_priming.single_variable_snps.3.fc1.module.bias f8 [4]
0.024036288261413512 0.8174613714218195 -0.3184903860092265 -0.2727688550949089
00000000: eeff ffff f79c 983f 3200 00c0 a428 ea3f
00000010: b800 0080 2562 d4bf f2ff ff7f 0b75 d1bf

decoder_variable_priming.single_variable_snps.3.fc2.module.weight f8 [4, 4]
0.4811867475509872 -0.07578557729740962 -0.08645176887522477 -0.439784228801703 0.15646946430210584 -0.4765078425409829 0.4335204958914506 -0.40189927816386717
-0.16042083501824395 -0.22612160444231685 -0.15013402700412362 0.38803291320791905 -0.2811408638953932 -0.25218075513834415 -0.3867055773734584 0.22738701105120454
00000000: 9c01 0080 c3cb de3f fe37 0000 af66 b3bf
00000010: e81c 0000 b421 b6bf 4afe ffbf 6c25 dcbf
00000020: 0806 0000 3107 c43f 0611 00c0 1a7f debf
00000030: 86f7 ffbf ccbe db3f fefc ffbf b7b8 d9bf
00000040: 1a0c 0080 ab88 c4bf a7d8 ff7f 8df1 ccbf
00000050: 59ef ff7f 9737 c3bf c1f9 ffff 87d5 d83f
00000060: 61fe ff3f 36fe d1bf 44fc ffbf ba23 d0bf
00000070: bffc ffbf c8bf d8bf bd03 0080 041b cd3f

decoder_variable_priming.single_variable_snps.3.fc2.module.bias f8 [4]
-0.41100823879243464 -0.1306821107864618 0.38628935813909065 -0.4624999761581607
00000000: 1201 0080 f54d dabf 5a03 0000 31ba c0bf
00000010: b303 0000 f7b8 d83f 4f01 0080 9999 ddbf

decoder_variable_priming.single_variable_snps.3.glu.module.fc1.weight f8 [4, 4]
-0.2615039348602295 0.4895390272140503 -0.4107339382171631 -0.4705146551132202 0.04441452026372223 -0.3627594709395875 0.38301426172283115 -0.22582674026458655
-0.2161912322044341 0.11526370048530878 -0.15773522853846234 -0.21990263462077433 -0.24300152063382935 0.4974826574324843 0.30831795930831457 -0.16295552253727807
00000000: 0000 0000 7bbc d0bf 0000 0080 9b54 df3f
00000010: 0000 0000 7749 dabf 0000 0080 e91c debf
00000020: 591c 0000 80bd a63f 92fc ff7f 7337 d7bf
00000030: c012 0040 4e83 d83f eed4 ffff e3e7 ccbf
00000040: 8eff ff7f 27ac cbbf 5116 0000 ec81 bd3f
00000050: d8f8 ffff aa30 c4bf 2d0f 0000 c525 ccbf
00000060: 8e12 0080 ac1a cfbf f2fa ff7f c1d6 df3f
00000070: 35ea ff3f 7bbb d33f 9006 0000 badb c4bf

decoder_variable_priming.single_variable_snps.3.glu.module.fc1.bias f8 [4]
0.016228556632995605 0.28419822454445454 0.384180843830119 0.17199295759213387
00000000: 0000 0000 389e 903f 08fb ffbf 4d30 d23f
00000010: bb00 0040 6b96 d83f 5d11 0080 dd03 c63f
